save/grud_mean_grud_para.pt (torch_old, 4371 bytes, 17 tensors)

weight_dg_x f4 [33]
1.190192 0.026372686 -0.15291892 -0.03789997 0.012800671 1.1019585 0.0011310567 -0.11656979
3.949788 0.009619713 -0.13244271 -0.015180156 -0.12773132 -0.15493073 -0.47631186 0.31279024
-0.019590585 1.6140927 -1.4862425 -0.052227434 1.3759574 -0.1947916 -0.009743901 1.5930557
-0.00255089 -0.2529847 0.8438124 -0.25439575 -0.0021396203 2.3387644 -0.012684466 0.06283093
-0.18339391
00000000: 3658 983f 880b d83c c796 1cbe 003d 1bbd
00000010: e8b9 513c fa0c 8d3f f73f 943a 24bc eebd
00000020: 54c9 7c40 009c 1d3c 109f 07be 30b6 78bc
00000030: 00cc 02be 29a6 1ebe 26df f3be 0b26 a03e
00000040: 6f7c a0bc 979a ce3f 323d bebf 6fec 55bd
00000050: 5f1f b03f 7377 47be e2a4 1fbc 40e9 cb3f
00000060: d52c 27bb 3687 81be 1704 583f 2940 82be
00000070: df38 0cbb 51ae 1540 82d2 4fbc 81ad 803d
00000080: 9dcb 3bbe

weight_dg_h f4 [33]
-0.0146345645 1.2404678 -0.008313756 0.03825291 -0.12265854 2.1926396 2.5252187 5.0058136
-0.00014285503 -0.17506468 -0.109586015 0.048680548 -0.03626114 0.44650805 0.0045339386 5.061847
-0.13810101 -0.1009643 -0.06679301 0.05394734 0.008632738 2.4971046 0.02940505 0.014951733
-0.3193009 -0.48178264 -0.010870367 -0.17980063 -0.07669536 1.7444822 0.016260143 0.015784983
-0.22130196
00000000: d0c5 6fbc a6c7 9e3f 6c36 08bc 15af 1c3d
00000010: 6734 fbbd 3554 0c40 2f9d 2140 a02f a040
00000020: 5bcb 15b9 2844 33be a26e e0bd 4165 473d
00000030: 9086 14bd b49c e43e 6f91 943b a7fa a140
00000040: 5a6a 0dbe 5fc6 cebd c6ca 88bd e3f7 5c3d
00000050: 5470 0d3c 90d0 1f40 dce2 f03c 1df8 743c
00000060: 687b a3be 37ac f6be a019 32bc a81d 38be
00000070: 7512 9dbd 314b df3f fe33 853c 824f 813c
00000080: fb9c 62be

weight_xz f4 [33]
1.3169134 3.1360743 0.1923646 -0.760504 2.0539086 0.82310575 2.5330737 -0.7288285
1.8574762 2.4474459 3.9045336 -0.87080526 0.8961218 0.44848853 0.7402033 -0.66199905
1.2901541 0.64395964 -0.92232615 -0.57599485 -0.284917 -0.31858137 -0.23965555 1.2649814
-0.50028867 -1.0059971 0.3823762 1.8025882 0.46659142 1.1058578 -1.0117064 0.0038405405
-0.69017076
00000000: 9e90 a83f 71b5 4840 3afb 443e 64b0 42bf
00000010: 3d73 0340 0fb7 523f e11d 2240 8194 3abf
00000020: c8c1 ed3f f4a2 1c40 e1e3 7940 18ed 5ebf
00000030: 3d68 653f 4aa0 e53e f77d 3d3f c578 29bf
00000040: c523 a53f 8ada 243f 911d 6cbf 6674 13bf
00000050: a4e0 91be 191d a3be 4468 75be e9ea a13f
00000060: eb12 00bf 83c4 80bf d0c6 c33e 36bb e63f
00000070: 12e5 ee3e c08c 8d3f 987f 81bf 94b1 7b3b
00000080: 08af 30bf

weight_hz f4 [33]
-2.2872112 -1.4471661 2.3165073 0.29086688 -1.251022 -0.58209383 -0.08044493 0.9621749
-0.5316807 -0.6468437 2.0212746 0.86142063 -1.4576836 5.054142 1.6389937 -0.44770172
0.06173397 -1.9339582 -0.82390344 -0.18966158 1.0317603 -0.8013934 1.265666 -0.6155324
-0.19104956 1.0797946 -1.579213 -2.05168 1.1031793 -1.3555735 -0.83429945 -0.040958486
-0.4631475
00000000: ab61 12c0 bd3c b9bf a841 1440 81ec 943e
00000010: 7d21 a0bf 1a04 15bf 50c0 a4bd 1851 763f
00000020: 3a1c 08bf 8c97 25bf 905c 0140 1086 5c3f
00000030: 6095 babf 88bb a140 8cca d13f 2939 e5be
00000040: c2dc 7c3d f18b f7bf 56eb 52bf a536 42be
00000050: b910 843f 1e28 4dbf 5801 a23f 8893 1dbf
00000060: 7fa2 43be b636 8a3f a723 cabf ba4e 03c0
00000070: fb34 8d3f 6f83 adbf a694 55bf 16c4 27bd
00000080: ab21 edbe

weight_mz f4 [33]
3.5663054 0.8441999 -0.4938598 0.35822445 2.5651877 0.3842025 -0.64772564 -0.3122679
1.0696839 1.5852966 1.6442684 -0.60885966 -0.137793 -0.16399093 -0.8881421 -0.5782771
1.9013284 -1.105868 -0.8407209 -0.526826 0.38427588 -1.4673795 0.088277064 2.0246358
-0.31605577 -1.7004017 -0.95813024 3.6342351 0.44124466 -0.35739216 0.6781728 -0.37051192
-0.60638624
00000000: 593e 6440 7c1d 583f 31db fcbe 3269 b73e
00000010: 092c 2440 31b6 c43e 59d1 25bf 94e1 9fbe
00000020: 67eb 883f 00eb ca3f 6377 d23f 3ade 1bbf
00000030: 9c19 0dbe 3ded 27be 485d 63bf f809 14bf
00000040: bb5e f33f 158d 8dbf 7c39 57bf 12de 06bf
00000050: cfbf c43e 17d3 bbbf 9bca b43d a293 0140
00000060: 10d2 a1be c3a6 d9bf 0648 75bf 4f97 6840
00000070: d2ea e13e 1bfc b6be bc9c 2d3f bdb3 bdbe
00000080: 213c 1bbf

weight_xr f4 [33]
-2.2417574 -0.9894202 -1.2993348 -1.6754049 -3.2199159 -1.4306779 -1.6588972 -1.2817165
-1.4901825 -1.8599128 -3.361515 -1.4966756 1.5411985 2.7169445 -1.7282403 -0.45323065
-1.3999431 -1.6287615 -4.316562 -4.5431 0.5707913 -0.44586262 -0.09776336 -2.8002715
-3.2855327 -1.6708933 1.4521588 -3.5910268 -3.4250329 -1.3384941 -2.0927434 -2.7155182
0.21660233
00000000: f478 0fc0 a44a 7dbf 9a50 a6bf ab73 d6bf
00000010: 1a13 4ec0 7420 b7bf be56 d4bf 490f a4bf
00000020: 4dbe bebf 9f11 eebf 1023 57c0 1193 bfbf
00000030: fe45 c53f 6be2 2d40 fa36 ddbf d90d e8be
00000040: 5631 b3bf 427b d0bf 4721 8ac0 1361 91c0
00000050: 611f 123f 1b48 e4be 2838 c8bd a637 33c0
00000060: 2b46 52c0 d5df d5bf 57e0 b93f 62d3 65c0
00000070: bd33 5bc0 c653 abbf 82ef 05c0 0dcb 2dc0
00000080: 00cd 5d3e

weight_hr f4 [33]
-0.6805195 -2.2365758 3.088567 0.53994143 -0.534554 -2.6699069 -0.35152027 0.087216154
-1.0935911 -0.32279596 1.7302964 1.3169813 -1.3791716 -4.0423265 -1.3993732 -0.05415007
0.9476286 -0.891452 0.36180136 0.29079902 -0.8235621 -0.5593448 1.7566128 -0.79264724
0.06874287 -0.421077 4.413852 -0.8109706 2.0419283 1.1870607 -2.4450307 2.0484998
-0.500571
00000000: 8736 2ebf 0f24 0fc0 15ab 4540 9a39 0a3f
00000010: 88d8 08bf c1df 2ac0 77fa b3be 629e b23d
00000020: cbfa 8bbf 8345 a5be 5a7a dd3f d892 a83f
00000030: b288 b0bf bd5a 81c0 a91e b3bf 77cc 5dbd
00000040: ca97 723f 3336 64bf 073e b93e 9ce3 943e
00000050: f7d4 52bf 3931 0fbf b0d8 e03f eeea 4abf
00000060: 10c9 8c3d 6897 d7be 473e 8d40 c59b 4fbf
00000070: f4ae 0240 9bf1 973f 627b 1cc0 9f1a 0340
00000080: 6c25 00bf

weight_mr f4 [33]
-2.0607407 -3.5600367 -0.13443743 0.39128295 0.59637934 1.8678057 -0.0030153743 -0.15593034
-0.11297289 -6.2852125 0.723624 1.7761778 -0.68592364 5.4479403 0.86306286 0.16126123
-0.02384364 0.29688177 -1.1031812 -0.088427596 0.059866518 0.3397121 -0.351078 -3.8867247
0.1215934 0.25612974 2.0673244 0.032138154 -4.713593 1.6682035 -1.7010621 0.36393312
2.3487127
00000000: 2de3 03c0 a4d7 63c0 f7a9 09be 3d56 c83e
00000010: 51ac 183f 4214 ef3f 969d 45bb 34ac 1fbe
00000020: 555e e7bd 7620 c9c0 6c3f 393f cb59 e33f
00000030: b198 2fbf 8755 ae40 b0f1 5c3f aa21 253e
00000040: bd53 c3bc e300 983e 0b35 8dbf 8719 b5bd
00000050: 9836 753d bfee ad3e 7fc0 b3be 19c0 78c0
00000060: f605 f93d 7023 833e 0b4f 0440 4ca3 033d
00000070: c1d5 96c0 b187 d53f 67bc d9bf 7155 ba3e
00000080: 4f51 1640

weight_xh f4 [33]
-1.6399745 1.22196 -0.10436238 -0.22088294 0.39689025 -0.4209117 0.1153672 -0.24508673
1.4712902 0.5205562 -0.9697159 0.17401701 1.0131998 0.12166768 1.2147145 0.122900605
-0.77509284 -0.22138706 -0.6947316 0.07379448 -2.3588169 0.029055322 0.80332434 2.327252
-0.17063789 0.09002774 1.455141 0.5036949 -0.53523016 3.1892707 0.30447513 -0.8206539
0.059416093
00000000: afea d1bf 2f69 9c3f f2bb d5bd 232f 62be
00000010: 3335 cb3e bd81 d7be a345 ec3d 04f8 7abe
00000020: 3d53 bc3f 2c43 053f 4d3f 78bf 8431 323e
00000030: 88b0 813f e82c f93d c47b 9b3f 50b3 fb3d
00000040: 7c6c 46bf 4ab3 62be eed9 31bf 8f21 973d
00000050: dbf6 16c0 6d05 ee3c aaa6 4d3f b2f1 1440
00000060: b3bb 2ebe 7760 b83d 0f42 ba3f 26f2 003f
00000070: d804 09bf 031d 4c40 2ae4 9b3e 6016 52bf
00000080: 4a5e 733d

weight_hh f4 [33]
-2.60352 -0.7459038 -2.8251965 -2.9405549 1.4577111 -4.9792476 -1.8130612 -1.0406404
-0.8517243 0.8368822 1.0421836 -3.4599655 0.34999862 3.6864026 -2.438313 -1.3689855
-2.178228 -3.136307 -3.8519745 -4.329926 -2.3930635 -1.7702239 -2.6915512 -2.5517251
-3.4213006 -2.854312 3.0443265 -4.781242 -4.24426 1.8044685 -3.0632594 -3.675974
-2.4564824
00000000: 12a0 26c0 8df3 3ebf 05d0 34c0 0d32 3cc0
00000010: 4796 ba3f ff55 9fc0 6412 e8bf b433 85bf
00000020: 9b0a 5abf e93d 563f 4666 853f 1370 5dc0
00000030: 0533 b33e 05ee 6b40 520d 1cc0 eb3a afbf
00000040: 1668 0bc0 41b9 48c0 c086 76c0 c18e 8ac0
00000050: f427 19c0 b296 e2bf 6042 2cc0 774f 23c0
00000060: 97f6 5ac0 0cad 36c0 3fd6 4240 efff 98c0
00000070: fad0 87c0 d3f8 e63f 710c 44c0 2843 6bc0
00000080: 0237 1dc0

weight_mh f4 [33]
-3.7960012 0.22459719 -0.16421717 0.74053127 -0.58591 0.5081335 -0.102886766 0.45981976
-0.8696061 -0.9299395 1.2192267 0.12244097 -0.37193573 0.20677462 0.3033589 0.558435
-2.5205088 0.31055585 0.10583584 0.19495314 -1.1786466 0.05220267 -0.9388115 -0.29872194
0.22825456 0.63958424 0.2972811 3.757318 -2.4751325 0.36231592 3.7475426 0.39809594
-0.08789985
00000000: aff1 72c0 cefc 653e 8c28 28be 7593 3d3f
00000010: 33fe 15bf 0915 023f 4cb6 d2bd 7f6d eb3e
00000020: 819e 5ebf 8410 6ebf 9f0f 9c3f 55c2 fa3d
00000030: 5c6e bebe babc 533e dc51 9b3e 99f5 0e3f
00000040: 0450 21c0 2d01 9f3e 76c0 d83d cca1 473e
00000050: e4dd 96bf 78d2 553d f355 70bf 15f2 98be
00000060: 90bb 693e cbbb 233f 3a35 983e e677 7040
00000070: 9268 1ec0 7981 b93e bdd7 6f40 3bd3 cb3e
00000080: d604 b4bd

weight_hy f4 [1, 33]
0.51479584 -1.2588823 0.09114461 -1.6015127e-06 0.9239492 -0.6248871 0.10518443 0.0034732716
-0.6755076 0.463966 1.5545737 0.003421782 -0.3390302 -0.59703326 1.1252643 0.00051878183
0.22090513 -0.017171428 0.010089366 -0.0034102683 -0.51072145 0.07931262 0.29162043 -0.5321193
-0.032093957 0.021335578 -0.7010347 -1.9868727 1.2956177 -0.48333445 -0.18698679 0.6518862
0.00068445987
00000000: a9c9 033f 0e23 a1bf 06aa ba3d 8ff3 d6b5
00000010: ef87 6c3f 9af8 1fbf ef6a d73d d49f 633b
00000020: 11ee 2cbf f48c ed3e 45fc c63f fa3f 603b
00000030: 5e95 adbe 2cd7 18bf a908 903f dcfe 073a
00000040: f434 623e 18ab 8cbc de4d 253c cf7e 5fbb
00000050: a4be 02bf a86e a23d 464f 953e f838 08bf
00000060: f474 03bd f3c7 ae3c 0377 33bf d851 febf
00000070: cdd6 a53f 9d77 f7be 7779 3fbe 04e2 263f
00000080: 536d 333a

bias_dg_x f4 [33]
-0.17755571 -0.13043614 -0.007746792 -0.11933188 -0.07958431 2.1167169 -0.045019686 -0.019758005
2.1464636 -0.06554296 -0.020773387 -0.047972098 -0.022877915 -0.007915228 -0.009446925 2.4819405
-0.10912984 0.6910105 1.3191872 -0.03624081 -0.97347665 -0.028964259 -0.05112495 2.6113212
-0.14283314 -0.1049603 0.52962583 -0.024383578 -0.05208463 -0.69115835 -0.058098607 -0.2275948
-0.0032980351
00000000: 2ad1 35be 0d91 05be cdd8 fdbb 4664 f4bd
00000010: 19fd a2bd 4a78 0740 9066 38bd 8adb a1bc
00000020: a95f 0940 633b 86bd f32c aabc 647e 44bd
00000030: 776a bbbc dfae 01bc 46c7 1abc 1dd8 1e40
00000040: 777f dfbd 10e6 303f 20db a83f 3e71 14bd
00000050: c435 79bf 7446 edbc 6568 51bd e31f 2740
00000060: da42 12be 6df5 d6bd 8f95 073f 12c0 c7bc
00000070: b156 55bd c1ef 30bf cef8 6dbd 9c0e 69be
00000080: d923 58bb

bias_dg_h f4 [33]
-0.13550688 0.9845278 -0.06670864 -0.13214858 -0.023398405 5.3804336 2.0195646 1.1936855
-0.08334844 -0.016261404 -0.036798477 -0.10058725 -0.055470984 0.108784966 -0.024138248 2.5314267
-0.39804533 -0.029763432 -0.046445917 -0.17373595 -0.14414121 2.979662 -0.08753677 -0.120729044
-0.058289673 0.67728525 -0.036635116 -0.008446944 -0.0127182575 -1.2336222 -0.07367528 -0.14850248
-0.0073517016
00000000: 51c2 0abe 040a 7c3f 8a9e 88bd f551 07be
00000010: 03ae bfbc 832c ac40 8c40 0140 b0ca 983f
00000020: 96b2 aabd a336 85bc 00ba 16bd b000 cebd
00000030: 8b35 63bd a7ca de3d 93bd c5bc e502 2240
00000040: 99cc cbbe 71d2 f3bc 133e 3ebd d6e7 31be
00000050: c199 13be c8b2 3e40 7a46 b3bd ca40 f7bd
00000060: 27c1 6ebd 9162 2d3f b40e 16bd 0d65 0abc
00000070: 3d60 50bc 55e7 9dbf 11e3 96bd 0911 18be
00000080: 8be6 f0bb

bias_z f4 [33]
1.17176 -3.6672418 0.27679777 -0.28237605 -3.054174 -2.8175285 -4.0249963 -7.3825526
-0.32449114 -2.1066759 -2.3825667 -0.81020063 -2.0954874 -2.3386834 -0.25614208 -7.142275
-0.64700943 0.03837515 -2.803289 -1.3024148 0.61889 -6.625663 -0.30008402 0.23180889
-0.5693838 -1.014876 -1.9304204 -1.1602135 -0.7207657 -1.6265225 -0.08463211 -0.45785955
-0.0043123295
00000000: 3bfc 953f 17b4 6ac0 70b8 8d3e 9893 90be
00000010: 9677 43c0 6352 34c0 c5cc 80c0 df3d ecc0
00000020: b423 a6be c7d3 06c0 f97b 18c0 4f69 4fbf
00000030: 771c 06c0 fdac 15c0 0e25 83be 848d e4c0
00000040: 69a2 25bf 432f 1d3d 1669 33c0 87b5 a6bf
00000050: 936f 1e3f 6e05 d4c0 9da4 99be 4f5f 6d3e
00000060: 23c3 11bf 75e7 81bf 0418 f7bf e081 94bf
00000070: 1a84 38bf e431 d0bf 9a53 adbd 916c eabe
00000080: 714e 8dbb

bias_r f4 [33]
1.6145793 0.5524258 2.108794 1.4620955 1.4340616 5.297977 1.680928 1.0434207
0.68936014 0.4831861 -0.25818884 3.3943515 -1.7787315 -2.3262072 1.0923505 1.0170362
0.9872865 2.155756 3.3221805 3.90362 1.340777 1.9909918 2.7004056 1.2262831
3.3611696 2.682346 -0.08299968 4.4421225 2.186534 0.5613013 1.0722163 1.2798816
2.1485636
00000000: 89aa ce3f c76b 0d3f 7bf6 0640 f225 bb3f
00000010: 558f b73f 0789 a940 a628 d73f cf8e 853f
00000020: e879 303f 2b64 f73e 5431 84be 0e3d 5940
00000030: 79ad e3bf 94e0 14c0 24d2 8b3f 3e2e 823f
00000040: cfbe 7c3f e8f7 0940 9b9e 5440 e9d4 7940
00000050: 959e ab3f d2d8 fe3f 72d3 2c40 d8f6 9c3f
00000060: 671d 5740 8fab 2b40 bcfb a9bd de25 8e40
00000070: 2cf0 0b40 71b1 0f3f 623e 893f 29d3 a33f
00000080: 1182 0940

bias_h f4 [33]
-0.51297647 -0.19826756 -0.019122008 -0.023034211 -0.35975993 -0.1202043 0.06543283 -0.040677924
-0.15970221 -0.6139051 -0.51385325 0.04387455 -0.51132345 0.15397547 -0.17356262 0.0032508166
0.041454006 -0.09256384 -0.07271441 0.01768529 -0.014818818 -0.085313946 0.14035153 0.06551234
0.020220138 0.055574317 -0.28660014 -0.082123995 0.10314932 0.00034591055 -0.032978743 -0.3132173
0.003126238
00000000: 6d52 03bf a706 4bbe c2a5 9cbc 3eb2 bcbc
00000010: 7432 b8be ac2d f6bd a601 863d e59d 26bd
00000020: fa88 23be e228 1dbf e38b 03bf cdb5 333d
00000030: 18e6 02bf bfab 1d3e 66ba 31be a70b 553b
00000040: adcb 293d 1c92 bdbd 4beb 94bd bee0 903c
00000050: a1ca 72bc 14b9 aebd 50b8 0f3e 552b 863d
00000060: b4a4 a53c e5a1 633d 41bd 92be a030 a8bd
00000070: f33f d33d 545b b539 b814 07bd 055e a0be
00000080: 92e1 4c3b
